…
============================================================
Model: "CNN_BiLSTM_RepCounter"
__________________________________________________________________________________________________
 Layer (type)                Output Shape                 Param #   Connected to                  
==================================================================================================
 input (InputLayer)          [(None, 5313, 12)]           0         []                            
                                                                                                  
 conv1d_1 (Conv1D)           (None, 5313, 64)             3904      ['input[0][0]']               
                                                                                                  
 bn_conv_1 (BatchNormalizat  (None, 5313, 64)             256       ['conv1d_1[0][0]']            
 ion)                                                                                             
                                                                                                  
 maxpool_1 (MaxPooling1D)    (None, 2656, 64)             0         ['bn_conv_1[0][0]']           
                                                                                                  
 dropout_conv_1 (Dropout)    (None, 2656, 64)             0         ['maxpool_1[0][0]']           
                                                                                                  
 conv1d_2 (Conv1D)           (None, 2656, 128)            41088     ['dropout_conv_1[0][0]']      
                                                                                                  
 bn_conv_2 (BatchNormalizat  (None, 2656, 128)            512       ['conv1d_2[0][0]']            
 ion)                                                                                             
                                                                                                  
 maxpool_2 (MaxPooling1D)    (None, 1328, 128)            0         ['bn_conv_2[0][0]']           
                                                                                                  
 dropout_conv_2 (Dropout)    (None, 1328, 128)            0         ['maxpool_2[0][0]']           
                                                                                                  
 bilstm_1 (Bidirectional)    (None, 1328, 128)            98816     ['dropout_conv_2[0][0]']      
                                                                                                  
 bn_lstm_1 (BatchNormalizat  (None, 1328, 128)            512       ['bilstm_1[0][0]']            
 ion)                                                                                             
                                                                                                  
 bilstm_2 (Bidirectional)    (None, 64)                   41216     ['bn_lstm_1[0][0]']           
                                                                                                  
 bn_lstm_2 (BatchNormalizat  (None, 64)                   256       ['bilstm_2[0][0]']            
 ion)                                                                                             
                                                                                                  
 shared_dense (Dense)        (None, 128)                  8320      ['bn_lstm_2[0][0]']           
                                                                                                  
 dropout_shared (Dropout)    (None, 128)                  0         ['shared_dense[0][0]']        
                                                                                                  
 classification_dense (Dens  (None, 64)                   8256      ['dropout_shared[0][0]']      
 e)                                                                                               
                                                                                                  
 counting_dense (Dense)      (None, 64)                   8256      ['dropout_shared[0][0]']      
                                                                                                  
 dropout_classification (Dr  (None, 64)                   0         ['classification_dense[0][0]']
 opout)                                                                                           
                                                                                                  
 dropout_counting (Dropout)  (None, 64)                   0         ['counting_dense[0][0]']      
                                                                                                  
 exercise_classification (D  (None, 3)                    195       ['dropout_classification[0][0]
 ense)                                                              ']                            
                                                                                                  
 repetition_count (Dense)    (None, 1)                    65        ['dropout_counting[0][0]']    
                                                                                                  
==================================================================================================
Total params: 211652 (826.77 KB)
Trainable params: 210884 (823.77 KB)
Non-trainable params: 768 (3.00 KB)
__________________________________________________________________________________________________
…
